self-driving-car/last_brain.pth (torch, 21021 bytes, 18 tensors)

fc1.weight f4 [30, 6]
00000000: 5dc1 0f3f 7544 de3e 8c87 c33a 27d4 443f
00000010: 6188 2bbf 5272 4abc 2c1a d63d 6b56 9abe
00000020: c9be 863e 422f 5cbe 7963 103f 2b9d 59c0
00000030: 24f3 093f 9da1 85bd d661 863e a533 b73c
00000040: a78e 39bd 5261 d83d d37d a9be 5b49 7cbd
00000050: 1d89 0abb 5454 5cbc 739a 0ebe abb3 a03e
00000060: 742b b9bd 1898 36bd c4a2 153e dbfb 48bd
00000070: 96a7 0e3f b0ac 48c0 43e0 143f 7c06 4e3e
00000080: 5cf1 8a3e 5650 adbe 1566 1b3f 96d6 183e
00000090: dc5b bcbe 615e 2bbf 2620 cb3e 69e6 063f
000000a0: 4ea9 ddbe aa42 20c0 95a0 9a3d 8721 1f3c
000000b0: 25cd 17bf 6967 3bbe dacf c7be ccea 943e
000000c0: 28de ccbd 8ae4 d8bc 1a04 7cbe e4dc f7be
000000d0: ba7e f93e c4d6 4bc0 b401 253f 520e af3d
000000e0: 971d 91be 6788 a73e 92c0 323e fee1 e83e
000000f0: 5383 013f 8911 543e 2b52 1d3e a0ea bcbc
00000100: a529 38be cb49 c1be 7e0c bc3e 5119 323f
00000110: 2edf bbbe 7ca2 80be be10 6f3e 6c76 843e
00000120: 7f1b 173d 62c1 06bf c182 383e 91c8 f93d
00000130: eb9d d83e cf59 00c0 0142 3dbf b6c4 4e3e
00000140: 61ea a0bd 0bbf aebe 9331 1a3d ffa0 a0be
00000150: 248b 22bf 8dc3 aa3e 7d8c 9ebe 6340 213f
00000160: 6c75 debe 472f 09be f3bb 17be 0e25 333d
00000170: bedf 1b3f 5f3f 203f 946b 03bf 2f3d 463e
00000180: a5c7 85be d94d 693e b2e3 113e c889 3dbf
00000190: c1f2 4f3e c40c f33c 5040 e8bd c2ae 3d3e
000001a0: 3f69 8f3e fab7 f03e cbe1 8f3d 5c0b 84bd
000001b0: 1018 ecbc 2e3d 92be 0cd7 883d 0f3e 02bf
000001c0: d9d0 f73d ecf8 b0bf b4c3 cb3b 2ac4 83be
000001d0: 4d8f 9c3e fa76 dd3e d4ce 6b3e 77ec a03d
000001e0: e86a dabe 2aad 9cbe 0b67 e93c 3467 71be
000001f0: 30d0 dcbe 7c5d d13d 6e4d c5be a2d9 2f3e
00000200: 890a 00bd 1f4e 9a3e 2d0f 8ebc dbcd 403e
00000210: 2256 053f 3392 09be 8f73 febe b6c8 2cbf
00000220: 2cab f83e 234c 9fbc 2625 e8bd 3264 a3be
00000230: a82d 4ebf 079d 213f 3d4c 27bf 8bb5 b53d
00000240: 1ed7 6ebb acd9 05be 85ee 523e 5891 823e
00000250: 960d 20be c4a1 ca3e c7b7 fd3e 710e a6be
00000260: 3f10 1e3f 3151 ae3e 58cf 87bd 65aa 973e
00000270: f49b adbc 0dd6 c83d 9e0c cebe 87d3 2cbe
00000280: bb12 da3d fa6f d6bd c91c d13e 7358 62be
00000290: cdc4 223f 0538 093d 65be 62be 12b0 a5bd
000002a0: ba42 bdbe 2ba8 14bf 5a32 773e 95e6 bd3e
000002b0: 7953 4b3e 29cf d3bc a371 ae3d 7167 363f
000002c0: 6e2f 5f3d 51e1 bfbc 39b5 693e 0f15 533e
0.56154424 0.43411604 0.0014917715 0.7688622 -0.6700497 -0.012356358 0.10454211 -0.30144057
0.26317433 -0.21502402 0.56401783 -3.4002178 0.5388663 -0.06524966 0.26246518 0.022363493
-0.04530206 0.105654374 -0.3310381 -0.061593395 -0.0021138855 -0.01344784 -0.13926105 0.31387076
-0.09041491 -0.04457864 0.14612871 -0.049068313 0.55724466 -3.13554 0.58154696 0.20119661
0.27137268 -0.33850354 0.6070264 0.14925608 -0.36788833 -0.66940886 0.39672965 0.5269533
-0.43293232 -2.5040689 0.0755016 0.009712583 -0.592974 -0.18301167 -0.39025766 0.29085386
-0.100033104 -0.026476163 -0.2461094 -0.48410714 0.48729497 -3.1849833 0.64455724 0.08547653
-0.28342888 0.32721254 0.17456272 0.45484918 0.5059101 0.20709814 0.15363376 -0.023061097
-0.17984636 -0.37751612 0.3672828 0.6956988 -0.3669371 -0.25123966 0.2334623 0.258716
0.036891457 -0.5263883 0.18018629 0.12196458 0.42307982 -2.0054815 -0.7392884 0.20192227
-0.07857204 -0.3413013 0.037644934 -0.3137283 -0.6349356 0.33352318 -0.3096656 0.6298887
-0.4344896 -0.13396941 -0.1481779 0.04373651 0.6088828 0.62596697 -0.51336026 0.19359277
-0.2612888 0.22783603 0.14247015 -0.7403836 0.20307447 0.029669173 -0.11340392 0.18523696
0.28009984 0.47015363 0.070254885 -0.06447479 -0.028820068 -0.285623 0.06681642 -0.50875944
0.121003814 -1.3825965 0.006218398 -0.257356 0.3057808 0.43254834 0.23028117 0.07857602
-0.42659688 -0.30600864 0.028491518 -0.23574525 -0.43127584 0.10222909 -0.38535637 0.17172864
-0.031260047 0.30137727 -0.01734122 0.18828528 0.52084553 -0.13434677 -0.4969754 -0.6749376
0.48568094 -0.019445485 -0.113352105 -0.3191238 -0.80538416 0.6313023 -0.65350705 0.08872517
-0.0036444138 -0.13071316 0.205988 0.25501513 -0.15630183 0.39576542 0.49554273 -0.32432893
0.6174354 0.3404632 -0.066313446 0.29622188 -0.021192528 0.09806452 -0.40244 -0.16877566
0.10648104 -0.104705766 0.40842274 -0.22104053 0.63581544 0.03350069 -0.22142942 -0.08090223
-0.3696497 -0.58069104 0.24140301 0.37089983 0.19856061 -0.025855618 0.08517768 0.7125159
0.05448859 -0.023422869 0.22823037 0.20613502

fc1.bias f4 [30]
00000000: 6216 bebe 4287 04bf 769a 6fbe a326 a4be
00000010: 2a75 c5be cef0 c2bd cb2c 47be d9d7 e43e
00000020: c096 a3be d072 72bd 6b22 dd3e 8c46 99be
00000030: ed57 eb3d a521 413e fdea a9be 429f 25bf
00000040: 5b7d 87be 5bfe f1bd 773b ebbe d253 aa3e
00000050: 6476 f63e d889 d8be 1659 b6be 8506 85be
00000060: feaf d13e 9f3d 2cbe cd2e b4be ad78 2cbe
00000070: 162d 0e3f 9ada c43e
-0.37126452 -0.5176889 -0.23398766 -0.32060727 -0.38565952 -0.09518586 -0.19450681 0.4469593
-0.3195095 -0.059191525 0.4319032 -0.29936635 0.1149138 0.1886049 -0.33187094 -0.64696133
-0.26462826 -0.118160926 -0.45943806 0.33267075 0.481372 -0.42292666 -0.35614842 -0.25981537
0.40954584 -0.16820382 -0.35191956 -0.16842909 0.55537546 0.3844803

fc2.weight f4 [30, 30]
00000000: b157 e13e 97aa 5bbf e4fb 683c 4f11 5a3d
00000010: f031 7ebf 0ce3 64bd 5c7f 57be 29e3 cc3d
00000020: 88b1 1abf f826 c83d 4ac7 4dbd 5714 d5bc
00000030: ba03 243e b673 853e 94c2 2dbf dcf0 bdbe
00000040: 427d 2b3e 728a 273e f606 f1be f35f f53d
00000050: 3762 7f3e 3158 d63e 9238 7dbe b951 5abe
00000060: 6eda b53d d777 51bd 34a1 f43d 066f 18bd
00000070: 1980 483e 3ffb eb3d 44f9 c43b 37ae 04bf
00000080: ca14 293e fbb4 e8bd ae6f bebf 75dd cb3e
00000090: f9b8 683d 1bac d0be bb63 d7be 4126 3b3e
000000a0: 3512 f93c 8624 8c3e ea0d df3d ad94 2e3e
000000b0: 7fd0 a2bd d981 cf3e 8f9e eb3e 75b8 8f3d
000000c0: 2e11 f0be f0a6 1cbe 2401 7ebe 9273 0a3e
000000d0: 52b6 ea3e 21e0 4bbf ed52 2abe d54a 1e3e
000000e0: 53df 9c3d 5033 ab3e 233a 6f3d f348 313e
000000f0: 8927 b13e 1090 2ebd cd9d 533e 55b6 ac3d
00000100: 1989 60bc b44f 48be b10e ec3e 77b6 033e
00000110: 7fa4 d9be 8fb8 413e 359b 8dbc dc11 3fbd
00000120: 6b60 253f 996c 853e f367 b03e 8b7a 403f
00000130: 049d 06bf 3873 823e 2fd4 0f3e 14f1 9d3d
00000140: 2536 ed3d b3f5 aebd 3ea4 34bf b93b 1cbc
00000150: 1daf f23c 7a5d 863d 9e49 18be 44a2 4d3e
00000160: 4a56 4bbd d0ff 16bc 0a73 c3bd 4d5d aa3e
00000170: 0672 543d 26ac 92be 42e7 8f3f 8d5c 913e
00000180: fdc4 f7bd fe2e 05bc 4f39 4b3f e04f 7a3e
00000190: 8dff efbe b8f0 eb3e da11 323c 4713 123e
000001a0: abf1 9dbd 42da c7bc bc80 0d3e 6036 0c3e
000001b0: 01e6 263f 27f8 42bf db5c fabe d41d b1be
000001c0: 34ba c93e b98b ffbe b00c 7bbd a1c4 8a3e
000001d0: 2423 e0bd 5bd0 c9be 7991 14bf cfee a93c
000001e0: 3f9f 19be 87ea 423c 0767 713d 4aba d93d
000001f0: 4db3 b4bd a90e 4ebc fdbf 0a3d d050 d9bc
00000200: eb9e 35be 3dd8 3fbd 363d 04be cf8a 42bd
00000210: c74e afbd 73ee 48bc f2c2 1dbe a83b 2abc
00000220: fb4b 5ebd 5cb5 35be 2596 f8bd abbd 6d3d
00000230: 79b1 1cbe 59e7 10be 1c6b 14be 9b3d 283d
00000240: b09b eb3d 88e1 00be 97f7 6bbc 490e 613d
00000250: 540f b9bd bff2 193c 1d0c c43e 8058 68be
00000260: af00 5ebe 740b ef3d b0c1 c2be fa8e bdbe
00000270: c571 52bf 440d 84bd 7fe1 0a3e d929 983b
00000280: 283e abbe 9ad7 f33b fa47 12bd 69b1 dbbe
00000290: c877 0fbb 6989 563f 438b a13d 999f 173e
000002a0: 713f 9b3e 69a3 8dbd 6784 9e3d ac03 a5bb
000002b0: 3e90 ef3e 8ec3 cdbc a484 bfbd 8d12 8b3d
000002c0: e5c4 a53d 8bc5 e83d 5140 1bbe 708f d6bc
000002d0: 34b4 da3e da3d 88bd 71ce debd 8ddb 96bc
000002e0: 873e afbe 8b89 0a3e 8c0d 993d 0085 1ebe
000002f0: 22cd 01be c5ad 563d a546 cabd d4c2 173a
00000300: 211d f8bd 8589 b2be a134 a6be b5ad 063f
00000310: a219 903e f212 dfbb fbb3 babe 6c1b 3dbc
00000320: 4929 cfbd 03b9 b43c c01c 633e b4d8 8dbe
00000330: 6d83 483d 771a 613e 2571 1d3d 33e8 3b3e
00000340: 32ed 09bf b572 1abe 7f9a 3bbe 66ea 06be
00000350: b050 f5bd 86a8 83bd b371 f33b b04f 823d
00000360: 8009 d33d ef21 75bd 3b64 d73d 181e c7bc
00000370: 6bcf 5cbd f558 f7bc 8aa8 b03c 03ff 8cbd
00000380: bfd7 a33d 0935 12bd 6257 243d b5e8 bfbd
00000390: a102 de3d 5ddd 183c 1d85 d43c d959 ccbd
000003a0: 8f87 debd 67b9 1fbe 54e5 f63d b807 273d
000003b0: 534a 013e c5d6 163d d4f8 b3bd c2ef 00bd
000003c0: bed2 993e b9b1 07be e0fc 7dbd 09ca 01be
000003d0: d6d2 89bf 3b49 403e 535e 3c3f b694 7dbd
000003e0: 28bc bfbe de00 0cbb 2ed0 6b3e 1517 5c3e
000003f0: e4df 4d3e 8b16 853d 457e 443e a54e 94be
0.44012216 -0.85807174 0.014220212 0.053239163 -0.9929495 -0.05588059 -0.21044677 0.10004265
-0.6042714 0.09773058 -0.050238885 -0.026010675 0.16017047 0.26064843 -0.6787503 -0.37097824
0.16747001 0.16361406 -0.47075623 0.119811915 0.2493981 0.4186416 -0.24728611 -0.21320237
0.08879553 -0.05113968 0.119448096 -0.037215255 0.19580115 0.11522531 0.00601116 -0.5182833
0.16511837 -0.11362644 -1.4877832 0.39817396 0.05681703 -0.40756306 -0.42068276 0.18276311
0.03040419 0.27371615 0.10891326 0.17048903 -0.07949924 0.40528753 0.46019408 0.07017604
-0.46888107 -0.15298057 -0.24805123 0.13520649 0.45842224 -0.7963887 -0.16633196 0.15458234
0.07659783 0.33437586 0.058405053 0.17312984 0.34600475 -0.042617857 0.20665665 0.084332146
-0.013704562 -0.19561654 0.4610496 0.12862574 -0.42508313 0.1891806 -0.017285923 -0.04664789
0.6460025 0.26059416 0.34454307 0.75186986 -0.52583337 0.2547853 0.14045785 0.07711998
0.11582593 -0.08542957 -0.70563114 -0.009535723 0.029624516 0.06560798 -0.14871833 0.2008143
-0.04964284 -0.009216264 -0.09543426 0.33274308 0.051866554 -0.28646964 1.1242449 0.28390923
-0.120981194 -0.00812888 0.7938432 0.24444532 -0.46874657 0.4608209 0.010868514 0.14265166
-0.0771211 -0.024396066 0.1381864 0.13692617 0.6519471 -0.761599 -0.48898968 -0.3459307
0.39399874 -0.49911287 -0.061291397 0.2710314 -0.109442025 -0.39416775 -0.58034474 0.020743756
-0.15002154 0.011896736 0.058936145 0.10631235 -0.088232614 -0.012576737 0.0338745 -0.026527792
-0.17736404 -0.04683708 -0.12913975 -0.04749566 -0.085599475 -0.012263882 -0.15406397 -0.0103902
-0.05427168 -0.17744964 -0.12138013 0.05804221 -0.15302075 -0.14150752 -0.14493984 0.041074377
0.115043044 -0.12586033 -0.014402292 0.054945264 -0.09036127 0.009396254 0.38290492 -0.2269001
-0.21679948 0.116721064 -0.38038397 -0.37023145 -0.8220485 -0.06447843 0.13562582 0.0046436605
-0.3344586 0.007441473 -0.035713173 -0.4290879 -0.0021891464 0.8380342 0.0788789 0.14806975
0.3032184 -0.06915934 0.077400975 -0.005035838 0.46789736 -0.025117662 -0.09351471 0.06790648
0.08094195 0.11365803 -0.15161254 -0.026191443 0.4271561 -0.06652422 -0.10879219 -0.018415237
-0.34227392 0.13529031 0.07473287 -0.15480423 -0.12675908 0.052411813 -0.098767556 0.00057892245
-0.12114931 -0.34870544 -0.32462028 0.52608806 0.28144556 -0.0068076784 -0.3646544 -0.011542182
-0.101152964 0.022060877 0.22178936 -0.27704394 0.048953462 0.21982752 0.03843798 0.18350296
-0.53877556 -0.1508282 -0.18320654 -0.13175353 -0.119782805 -0.06428628 0.0074293255 0.063628554
0.10304546 -0.059846815 0.10517164 -0.024306342 -0.053908747 -0.030193785 0.02156474 -0.06884577
0.08000135 -0.03569511 0.040122397 -0.09370557 0.10840345 0.009330121 0.02594238 -0.099780746
-0.108656995 -0.15598069 0.120554596 0.040778846 0.12626009 0.036825914 -0.087876946 -0.03147865
0.30043596 -0.1325139 -0.06200874 -0.12674727 -1.0767467 0.18777935 0.7358143 -0.0619094
-0.3744824 -0.0021362822 0.23028633 0.2149318 0.20104939 0.0649844 0.19188793 -0.2896625

fc2.bias f4 [30]
00000000: 03c2 993d 1a8a b2bd 3f51 ab3d 2035 68be
00000010: 5b2c 93bd 3ff4 62be f78a b3bd fa6f 2bbe
00000020: c2a0 463e 4872 15be 513d b3be 2d8a 72be
00000030: a1a3 90be 1f57 dcbd 9e67 b5bc 1913 c3be
00000040: d2b6 763e 37ad 31bc 80b7 2c3e 2bef 5fbe
00000050: 26b9 31be 87e0 c1bd f987 4d3e e52f c7be
00000060: 9653 03bd 0dd9 42be 3a1f 7dbe 35d7 c13e
00000070: d1f5 c039 8087 ed3d
0.07507708 -0.08717747 0.08365106 -0.22676516 -0.071861945 -0.22163485 -0.0876674 -0.16741934
0.19397262 -0.14594376 -0.35007718 -0.23685522 -0.2824984 -0.107588045 -0.022144135 -0.38100508
0.24093178 -0.01084452 0.16866875 -0.21868579 -0.17355785 -0.09466653 0.200714 -0.38903728
-0.032062136 -0.19028111 -0.24718943 0.37859502 0.0003680424 0.1159811

fc3.weight f4 [3, 30]
00000000: f8c0 813c 2b35 c9be 9aa6 2abe ec08 c2be
00000010: 7c84 dfbb 9c65 d7be 245d 00be 6ef8 483c
00000020: 3e5c 283e a364 95bd 4a27 783f 4d0c 00bf
00000030: dc1c e33c a9c5 903e bbf8 813e c053 8f3d
00000040: 5cca 6e3e f022 c5be d7a2 01bf de14 883d
00000050: f675 c5be 701e c1be be36 953d d443 a2be
00000060: ad71 0f3e 84d3 613c 76ac 033d edd5 303f
00000070: 97a0 883e 89cb 4f3e 1df4 2fbf ca74 86be
00000080: c5ce 82be 4f8d 543f ceed 893b 790c 2e3e
00000090: c25d 93be 17ac 013e bd82 d1be ab45 1fbe
000000a0: 9728 d23d ae9a b8be c7a8 6a3f dcd9 1b3f
000000b0: 0d2a b33e 8f62 8b3e 7e18 153f fcf0 5ebf
000000c0: a36e 0bbf 5070 15bd 2f07 92be 5f3d adbe
000000d0: 3350 d43e 4f25 16be 3be9 213f c26b 5ebe
000000e0: 88c9 2d3f df25 6c3f b6f7 d03e db56 9d3e
000000f0: f7f9 b4bd 3fc9 e0be 337e 633e 5dad d9bc
00000100: eaf0 a03d 35df 80bf 7550 b1be d9a8 983d
00000110: 8170 8b3e 554f 363f 7f17 a13f f493 05bf
00000120: cca4 83be bdd3 523f 0353 653e 0af8 9dbf
00000130: 499c 093c 5036 153d 96dc 52bf 69e2 7bbd
00000140: e687 0ebf af66 9ebe b97d 473e 05d3 533f
00000150: ed2d 2c3e 85c8 fb3c 3162 423f 2123 613f
00000160: 313e b23e c810 f03d
0.015839085 -0.39298376 -0.16665116 -0.37897432 -0.0068212133 -0.4206971 -0.1253553 0.0122662615
0.16441438 -0.072945856 0.9693495 -0.5001877 0.027723722 0.28275803 0.2538508 0.06998396
0.23319381 -0.38503218 -0.506391 0.06644605 -0.3856656 -0.37718534 0.07285832 -0.31692374
0.14008208 0.013783339 0.032146893 0.69076425 0.2668502 0.20292486 -0.6873186 -0.26260978
-0.25548378 0.8302812 0.0042092567 0.16996945 -0.2878247 0.12663303 -0.40920058 -0.1555392
0.10261648 -0.3605551 0.91663784 0.608793 0.3499302 0.27223632 0.582405 -0.8708646
-0.54465693 -0.036484063 -0.28521106 -0.33835885 0.41467437 -0.1466267 0.63246506 -0.21720794
0.6788564 0.92245287 0.40813988 0.30730328 -0.088367395 -0.4390354 0.2221611 -0.026571924
0.07858451 -1.0068117 -0.34631696 0.0745408 0.2723427 0.712148 1.2585295 -0.52178884
-0.25711668 0.82354337 0.22394948 -1.234132 0.008399078 0.03642875 -0.8236784 -0.06149522
-0.55676115 -0.30937716 0.19481553 0.82743865 0.16814394 0.030735264 0.7593108 0.8794423
0.34813073 0.11721951

fc3.bias f4 [3]
00000000: a949 443e d8ea 3f3e bc37 ef3d
0.19168724 0.1874193 0.11680552

exp_avg f4 [30, 6]
00000000: e8ed 1cb9 ab3e e539 9db6 44b9 bc80 b3ba
00000010: bc80 b33a 98b0 0d3b 7524 03b7 2c2e e830
00000020: a161 11ba ba3c 033a ba3c 03ba 0728 e436
00000030: 93c5 7ab8 7bc3 e0b8 8504 33b9 68da 8eb7
00000040: 68da 8e37 bf6b 353a 50d2 9537 e401 7337
00000050: e48e 3b38 808b 9634 808b 96b4 c793 33b8
00000060: 6134 58b7 feb0 bdb4 b0c7 03bb d5e0 ed3a
00000070: d5e0 edba 31a5 9e37 a5a8 233a ff28 103a
00000080: eb9b 243a 92f8 8d39 92f8 8db9 ff3c 943a
00000090: 27ae 4cb8 0400 0080 dbe0 05b6 0d15 a4bb
000000a0: 0d15 a43b 774b d6b7 e359 03ba e3d5 aab9
000000b0: 7d6e e8b8 542b d83a 542b d8ba 59f6 e4b9
000000c0: e170 d2b6 56ce 5231 c798 59ba bc69 cd39
000000d0: bc69 cdb9 32ab fa37 fb89 0cba 323e 92b9
000000e0: 40ec 17ba 4b16 1f3b 4b16 1fbb 9538 213a
000000f0: 4ce4 eb39 36ee da39 aa4c 153a 7e19 c8b7
00000100: 7e19 c837 8ae1 f839 f51e 2d3a e56e 3e3a
00000110: 0a69 263a 4ca5 153a 4ca5 15ba b503 493a
00000120: ff07 f8b9 6d17 5133 9f60 b1b9 b31f ed38
00000130: b31f edb8 17bb 27b8 0400 0000 e7f2 9db8
00000140: 024b 22b9 08e7 de37 08e7 deb7 466a b539
00000150: e477 81b5 3c83 5cb9 0e65 81b5 9e2d 32bb
00000160: 9e2d 323b cb69 62b9 00cb 2739 f5e6 a438
00000170: 1e2d a4b8 25e4 92bb 25e4 923b c53b 683b
00000180: 6d35 c838 68ac 60b8 0593 3439 887a b639
00000190: 887a b6b9 9888 67ba f9b8 8038 fa32 c2b8
000001a0: cb89 0437 7565 b8ba 7565 b83a 76dd 033a
000001b0: 7301 9fb6 0400 0000 7677 21ba c8df 0c3a
000001c0: c8df 0cba f730 f236 db32 9eb9 efd2 88b9
000001d0: 7ae3 c0b9 334f 023a 334f 02ba 6355 f438
000001e0: 7e64 2cba a441 18ba b88f 2fba 27f2 1c3a
000001f0: 27f2 1cba dec2 4cba f6e2 f5b7 ecff 5eb8
00000200: 5d1e 0e38 718a 90b8 718a 9038 322c 8e3a
00000210: f6a7 e5b9 fcc1 3338 c482 1db8 3772 ec39
00000220: 3772 ecb9 13db 9fba c92a 0f37 a3d6 9f36
00000230: 0400 0000 d598 16ba d598 163a d0e2 90b9
00000240: 8ed5 59b9 6fe7 38b9 a0a0 6db9 3a20 85b6
00000250: 3a20 8536 cb83 7f3a 6eaf 4cb8 66c6 72b9
00000260: 8ec1 93b8 7851 77ba 7851 773a a13d 8436
00000270: 0000 0000 0000 0000 0000 0000 0000 0000
00000280: 0000 0000 0000 0000 b189 2339 e3a3 d038
00000290: c272 ba39 950c eaba 950c ea3a 8e1b bf3a
000002a0: 5a41 b7b7 5329 adb8 d627 d5b7 ca25 f639
000002b0: ca25 f6b9 7580 c83a 7f7d 6539 2614 b539
000002c0: 73ae 8e39 0144 573b 0144 57bb 27cd 463a
-0.00014965946 0.00043724975 -0.00018760045 -0.0013694982 0.0013694982 0.002162015 -7.816697e-06 1.6893345e-09
-0.0005545859 0.00050063024 -0.00050063024 6.7995893e-06 -5.978865e-05 -0.000107175634 -0.00017072454 -1.7029422e-05
1.7029422e-05 0.00069206575 1.7860119e-05 1.4484369e-05 4.471735e-05 2.8041177e-07 -2.8041177e-07 -4.2814554e-05
-1.2886799e-05 -3.5332772e-07 -0.0020108037 0.001814867 -0.001814867 1.8911991e-05 0.00062430865 0.0005499273
0.0006279337 0.00027078815 -0.00027078815 0.0011309682 -4.8799582e-05 -6e-45 -1.9949427e-06 -0.0050073923
0.0050073923 -2.5545929e-05 -0.00050106476 -0.00032584285 -0.00011083202 0.0016492405 -0.0016492405 -0.00043671092
-6.2716285e-06 3.067631e-09 -0.00083006587 0.00039179425 -0.00039179425 2.9882041e-05 -0.0005361137 -0.0002789363
-0.0005795397 0.0024274762 -0.0024274762 0.0006150094 0.00044992787 0.0004175768 0.0005695323 -2.3853729e-05
2.3853729e-05 0.00047470286 0.0006604039 0.00072644494 0.00063480495 0.000570853 -0.000570853 0.0007668094
-0.00047308204 4.868291e-08 -0.0003383206 0.00011306945 -0.00011306945 -3.9990144e-05 6e-45 -7.5315875e-05
-0.00015477467 2.6572045e-05 -2.6572045e-05 0.0003460219 -9.646142e-07 -0.00021029724 -9.64066e-07 -0.0027187834
0.0027187834 -0.0002159245 0.00016001984 7.8631485e-05 -7.828533e-05 -0.0044827634 0.0044827634 0.0035436016
9.5466945e-05 -5.3566328e-05 0.00017220907 0.00034805038 -0.00034805038 -0.0008832305 6.1379695e-05 -9.260136e-05
7.8998955e-06 -0.0014068322 0.0014068322 0.00050302537 -4.738738e-06 6e-45 -0.00061594637 0.0005373922
-0.0005373922 7.2178623e-06 -0.00030174 -0.000260971 -0.00036790577 0.0004970908 -0.0004970908 0.00011650731
-0.0006576254 -0.0005808121 -0.0006697136 0.0005987011 -0.0005987011 -0.000781102 -2.9311963e-05 -5.316727e-05
3.3883716e-05 -6.892242e-05 6.892242e-05 0.0010846911 -0.00043803424 4.2857588e-05 -3.7553502e-05 0.00045098524
-0.00045098524 -0.0012196027 8.533426e-06 4.7635563e-06 6e-45 -0.00057448196 0.00057448196 -0.0002763481
-0.00020774288 -0.00017633823 -0.00022661919 -3.9674605e-06 3.9674605e-06 0.0009747117 -4.880077e-05 -0.00023152828
-7.0455586e-05 -0.0009434442 0.0009434442 3.941081e-06 0.0 0.0 0.0 0.0
0.0 0.0 0.00015596185 9.948739e-05 0.00035562186 -0.0017856533 0.0017856533 0.0014580355
-2.1845732e-05 -8.25698e-05 -2.5410129e-05 0.0004694893 -0.0004694893 0.0015297072 0.00021885893 0.00034538022
0.00027214325 0.003284693 -0.003284693 0.00075836707

exp_avg_sq f4 [30, 6]
00000000: 09da 0d38 66e7 9137 fa97 f537 cbd6 ae37
00000010: cbd6 ae37 2131 aa39 0907 ed36 8aef 2836
00000020: 23e2 0138 0b29 8038 0b29 8038 889b 5f33
00000030: b6fd 6936 2ce6 1e36 0bc0 4336 a422 ed35
00000040: a422 ed35 5fe0 a237 9afd 0034 e85d b433
00000050: c954 1634 daf4 0433 daf4 0433 ea06 2a36
00000060: 072a c538 e2ba 8138 c7e3 8c39 5cd3 013a
00000070: 5cd3 013a da64 d134 89d0 d235 73b7 b835
00000080: f26a c935 8d13 5a35 8d13 5a35 ac25 b937
00000090: 10a4 9335 cbf7 3534 8ed4 8a35 44f0 3b39
000000a0: 44f0 3b39 902f 5234 55c7 f836 0992 9736
000000b0: 2de1 0837 da57 0538 da57 0538 d7e9 ed38
000000c0: d1a9 4137 3cbe ce36 8313 3938 6441 d038
000000d0: 6441 d038 31a0 ab33 e6a1 1f37 7062 f736
000000e0: 73ac 1637 1c0a 6638 1c0a 6638 9752 d037
000000f0: 9c6e 4d36 64ea 3736 8cca 9136 6a47 de36
00000100: 6a47 de36 56b1 2336 5950 8d36 972b 6d36
00000110: 8858 8336 78aa 1a36 78aa 1a36 6b67 b137
00000120: 139c e736 beba 8536 b0ec 4637 17ca cd36
00000130: 17ca cd36 7227 1c34 0cf3 3034 1217 5d35
00000140: b5e8 b035 ad94 9436 ad94 9436 00a3 6835
00000150: faff 9a33 e2db 8634 ee11 8c33 bdd4 7438
00000160: bdd4 7438 0a80 3435 5ebf 2d38 d415 d337
00000170: 8528 4138 2443 1939 2443 1939 e792 053a
00000180: 4f2a 0737 f648 2736 8ba4 3937 5729 1537
00000190: 5729 1537 998d b337 674e 7435 8889 4c35
000001a0: 1851 b835 728e 8537 728e 8537 2e5c 4437
000001b0: e45a 8c36 baa0 fb30 8fb1 ca37 35f2 4d38
000001c0: 35f2 4d38 e9c7 2f33 4fc3 6636 ea2c 4e36
000001d0: 06d5 6036 39c1 ff36 39c1 ff36 143a 5838
000001e0: db82 ae36 1c96 9936 fce5 a136 8de8 fc36
000001f0: 8de8 fc36 b039 ae38 1f58 b134 f3f1 0035
00000200: aa12 8f34 7bae 0e34 7bae 0e34 b7c8 0b38
00000210: 4b08 8e37 1969 c336 978a 9a37 f5c6 8c37
00000220: f5c6 8c37 7ac2 8137 f8f4 ab35 f943 b435
00000230: 0af6 4730 501a 6936 501a 6936 fa39 bb37
00000240: f461 a536 1116 4736 9cda de36 6c6a ac36
00000250: 6c6a ac36 b176 9138 a9cc 3236 b661 0336
00000260: db20 1e36 4552 e136 4552 e136 91ea d737
00000270: 0000 0000 0000 0000 0000 0000 0000 0000
00000280: 0000 0000 0000 0000 2af5 e636 479f 9136
00000290: b6d0 4637 43c9 e537 43c9 e537 9b0f e437
000002a0: d60f b436 e288 df34 2294 f736 9398 e436
000002b0: 9398 e436 380f 8938 e532 9e35 f4e8 3e35
000002c0: 0e47 9d35 8296 8838 8296 8838 1721 b136
3.382008e-05 1.73931e-05 2.9277046e-05 2.0842437e-05 2.0842437e-05 0.0003246153 7.0639694e-06 2.517338e-06
3.0966603e-05 6.1111605e-05 6.1111605e-05 5.206269e-08 3.4867385e-06 2.3677812e-06 2.9169048e-06 1.7667958e-06
1.7667958e-06 1.9416386e-05 1.2013189e-07 8.3989846e-08 1.4000683e-07 3.0956336e-08 3.0956336e-08 2.5335999e-06
9.40152e-05 6.186009e-05 0.00026872588 0.00049524545 0.00049524545 3.9002663e-07 1.5706911e-06 1.3762459e-06
1.5006792e-06 8.123978e-07 8.123978e-07 2.207126e-05 1.1000102e-06 1.6947085e-07 1.0343663e-06 0.00017923216
0.00017923216 1.9575077e-07 7.4141813e-06 4.5171514e-06 8.1586595e-06 3.179149e-05 3.179149e-05 0.00011344597
1.1543235e-05 6.1614246e-06 4.412561e-05 9.930393e-05 9.930393e-05 7.991947e-08 9.514833e-06 7.3726333e-06
8.980848e-06 5.484569e-05 5.484569e-05 2.4833991e-05 3.0611764e-06 2.7405558e-06 4.3449163e-06 6.6244293e-06
6.6244293e-06 2.4392116e-06 4.211481e-06 3.5341125e-06 3.9144106e-06 2.3047014e-06 2.3047014e-06 2.1148202e-05
6.902506e-06 3.9854485e-06 1.1856828e-05 6.1330024e-06 6.1330024e-06 1.4542982e-07 1.6479697e-07 8.236249e-07
1.3180749e-06 4.428052e-06 4.428052e-06 8.666393e-07 7.217746e-08 2.511943e-07 6.5225194e-08 5.837226e-05
5.837226e-05 6.7241547e-07 4.142464e-05 2.5163325e-05 4.6052523e-05 0.00014616229 0.00014616229 0.00050954375
8.056478e-06 2.4927408e-06 1.106517e-05 8.890717e-06 8.890717e-06 2.14044e-05 9.1011174e-07 7.6196056e-07
1.373267e-06 1.5921167e-05 1.5921167e-05 1.1703973e-05 4.182906e-06 1.8308335e-09 2.4162959e-05 4.910138e-05
4.910138e-05 4.092718e-08 3.4386355e-06 3.0722535e-06 3.3502597e-06 7.6220863e-06 7.6220863e-06 5.1552503e-05
5.2008377e-06 4.5772304e-06 4.8249476e-06 7.5372577e-06 7.5372577e-06 8.307712e-05 3.3032936e-07 4.80358e-07
2.6649406e-07 1.3288256e-07 1.3288256e-07 3.3327113e-05 1.693158e-05 5.823688e-06 1.8422767e-05 1.6781947e-05
1.6781947e-05 1.5468559e-05 1.2811788e-06 1.3430828e-06 7.274542e-10 3.4735021e-06 3.4735021e-06 2.2319135e-05
4.9287864e-06 2.9666155e-06 6.641565e-06 5.1383886e-06 5.1383886e-06 6.936247e-05 2.6643195e-06 1.9577396e-06
2.356296e-06 6.7151e-06 6.7151e-06 2.5739226e-05 0.0 0.0 0.0 0.0
0.0 0.0 6.883075e-06 4.339879e-06 1.1850314e-05 2.7392647e-05 2.7392647e-05 2.7186985e-05
5.3662616e-06 4.1636582e-07 7.3784186e-06 6.8126915e-06 6.8126915e-06 6.535504e-05 1.178673e-06 7.1119507e-07
1.1718091e-06 6.5130196e-05 6.5130196e-05 5.2788632e-06

exp_avg f4 [30]
00000000: 021e dfba 27bd fdb9 dbf1 45b9 33b1 6fb8
00000010: bd13 ecba 5ef4 2b3a 9e4c cfbb 1b4f 6a3b
00000020: 570b a4b9 3201 233b ffc7 7b3a 53c0 413a
00000030: 05fd d7b9 fe9a ba39 5230 78bb b5ed b4bb
00000040: fb40 26ba 9ea8 f0ba bfe9 08ba 6133 ae3a
00000050: 369d a13a ab72 f939 6d6f 96ba 9a34 5bba
00000060: 31c5 d33a 210d ceba 0000 0000 320a c3ba
00000070: 093e c03a 8809 a63b
-0.0017022493 -0.0004839685 -0.00018877482 -5.714707e-05 -0.0018011254 0.0006559546 -0.006326272 0.0035752717
-0.00031288966 0.0024872539 0.0009604692 0.0007391024 -0.0004119651 0.00035592163 -0.0037870598 -0.005521501
-0.00063420803 -0.0018360799 -0.0005222819 0.0013290459 0.0012330178 0.00047578415 -0.0011477299 -0.0008362025
0.001615679 -0.0015720465 0.0 -0.0014880358 0.0014666925 0.005067054

exp_avg_sq f4 [30]
00000000: 25f7 7138 5247 c638 0045 9f36 90a1 a334
00000010: c35c 433a e10b 8636 6948 7d39 4a93 6838
00000020: 7e63 2439 4751 a738 cdb9 4637 9901 c036
00000030: 89d5 6637 c181 fd36 edf4 a438 868d 8039
00000040: 5e07 8537 7919 bd37 1920 a038 d56f 7d37
00000050: 6faa 9037 7e9d 6436 a36a e437 ff70 cb36
00000060: 0cbf 9537 a734 5d37 0000 0000 806c 2838
00000070: c86f 9837 9978 b938
5.768905e-05 9.45466e-05 4.746602e-06 3.0478668e-07 0.0007452482 3.994894e-06 0.00024154935 5.5450284e-05
0.00015677323 7.9783196e-05 1.184498e-05 5.722232e-06 1.3758786e-05 7.555093e-06 7.8657504e-05 0.00024519506
1.5858266e-05 2.2542417e-05 7.635373e-05 1.5106013e-05 1.7245502e-05 3.406632e-06 2.7229375e-05 6.063026e-06
1.7851147e-05 1.3184886e-05 0.0 4.015537e-05 1.8171864e-05 8.8439505e-05

exp_avg f4 [30, 30]
00000000: a4ed fe37 39e6 4bb7 52f0 efb8 1a41 b039
00000010: 7b51 09b7 cdfe f7b5 e630 dd38 f1d6 753a
00000020: 488f d6b8 c5b5 413a 8a6a 5eb9 8699 9139
00000030: 05f3 1fb9 4480 5cb8 5feb ba38 087a 5738
00000040: e197 c2b8 05a2 6ab6 b60e 91b6 ec84 9339
00000050: 307b 173a 2028 ba36 822f edb8 3214 3439
00000060: ceda 793a 178e 5539 0000 0000 1b50 38b9
00000070: 6d46 a839 9372 fa39 2536 9fb8 ebcf 6238
00000080: 3f2b b638 f99a 8938 8f77 1938 b3a7 fb38
00000090: e1dc 0234 0d6c 0639 90d9 bc37 06db b639
000000a0: 678a bdb9 4ff4 9a39 20bc fa37 a94a 0e38
000000b0: b27e 2234 3a94 e138 5397 bfb7 2f20 c3b8
000000c0: b8cf b537 d4b1 4cb8 48b7 c6b8 77fd ff37
000000d0: 6ed9 68b8 8324 ebb4 f3fd 0739 538a 2139
000000e0: 0000 0000 2ce3 02b9 2086 09b9 1543 e338
000000f0: 9a6b 8ab9 75e4 cbb6 6fef 90b8 7b75 11b8
00000100: d73a 67b6 2c09 7937 301b 8db9 70e0 84b8
00000110: 41b1 0db6 a4b9 9ab8 fa25 ecb8 1a1d cab8
00000120: 2e8b 13b8 a6d0 7138 5d7e 5fb9 b542 b1b8
00000130: 6476 c637 ee9d 0ab8 6937 b0b5 e75d 51b8
00000140: 704c 9736 c1f1 23b8 9193 b0b6 4b3b a8b9
00000150: 42c0 c0b8 3ede e9b8 0000 0000 3a73 dc35
00000160: 19eb 04b8 b932 3139 48ea e238 f4df b8b7
00000170: 3ab1 d238 ed43 9f38 e570 9bb7 a5ab 8938
00000180: 0400 0080 92f0 f738 dc88 77b8 8f9a 9239
00000190: d717 73b8 e9e3 2139 594c 22b8 8e7e 5cb8
000001a0: 0400 0080 53ae e438 d8ee 60b8 fa68 5437
000001b0: 9389 6cb7 7426 8e38 ffd5 8736 58cd 1038
000001c0: 09b2 81b8 5db5 8435 b642 8b39 e494 6239
000001d0: 0000 0000 1819 0238 e993 2cb8 4aa3 3939
000001e0: 0400 0000 0000 0000 0400 0000 0400 0000
000001f0: 0000 0000 0400 0000 0400 0000 0400 0000
00000200: 0000 0000 0400 0000 0400 0000 0400 0080
00000210: 0000 0000 0000 0000 0400 0000 0400 0000
00000220: 0400 0080 0400 0000 0400 0080 0400 0000
00000230: 0400 0000 0000 0000 0400 0080 0400 0000
00000240: 0400 0000 0400 0000 0000 0000 0400 0000
00000250: 0400 0000 0400 0000 3756 7db9 0400 0000
00000260: 9bac 04b9 2ab2 3a38 0400 0000 63e4 41b8
00000270: 365d 0313 2d35 4939 0400 0000 9622 1838
00000280: edc1 ceb9 a683 8c38 749e 0211 7730 8137
00000290: 0e74 2439 6bde 6bb8 2597 ed14 a53a cab8
000002a0: 0400 0000 d833 9bb8 6776 c538 3238 9437
000002b0: 0400 0000 80b2 d438 7f92 0038 a3a2 1eb9
000002c0: 0000 0000 f7e0 8ab9 d727 0e38 1f7c b9b8
000002d0: 39b5 a3b8 4708 0634 57c3 0939 2b85 0139
000002e0: 3476 5f30 5c31 8b39 c760 ff35 6778 8539
000002f0: f010 8730 36db dc39 3747 5bb9 eeee 8639
00000300: 9b47 4f35 0400 0000 8921 af35 aec3 b938
00000310: d8c2 99b6 755e a5b8 b57c 6b2b 6baa e138
00000320: d87f 8938 cc2c 0b38 4d5f 75b6 1244 b037
00000330: 6a78 c639 937b 9f39 0000 0000 3df3 00b8
00000340: 89f1 0638 0c20 8939 0400 0000 0000 0000
00000350: 0400 0000 0400 0000 0000 0000 0400 0000
00000360: 0400 0000 0400 0000 0400 0000 0400 0000
00000370: 0400 0000 0400 0000 0000 0000 0400 0000
00000380: 0400 0000 0400 0000 0400 0000 0400 0000
00000390: 0400 0080 0400 0000 0400 0000 0400 0000
000003a0: 0400 0080 0400 0000 0400 0000 0400 0000
000003b0: 0000 0000 0400 0000 0400 0000 0400 0000
000003c0: 4780 f9b9 c704 8c38 7aaa 22b9 2db4 bf39
000003d0: 1be3 3b38 0f2c e739 d71e adb9 b523 9e3a
000003e0: bebc 2fb7 ead0 633a 012b 29b8 bd3e 3239
000003f0: a5c2 0737 477e 0e39 374f a4b9 5112 7ab9
3.038982e-05 -1.2153346e-05 -0.00011441171 0.0003361784 -8.1848075e-06 -1.8477091e-06 0.00010547209 0.0009378037
-0.000102310034 0.00073894515 -0.00021211259 0.0002777094 -0.00015253953 -5.2571544e-05 8.9130124e-05 5.1373645e-05
-9.2789305e-05 -3.4963025e-06 -4.3230493e-06 0.0002813706 0.0005778549 5.547903e-06 -0.0001130989 0.00017173661
0.00095312006 0.00020366196 0.0 -0.00017577449 0.00032095928 0.0004776908 -7.591796e-05 5.4076238e-05
8.6864915e-05 6.561535e-05 3.658939e-05 0.00011999849 1.2187549e-07 0.00012819488 2.2512657e-05 0.0003487693
-0.00036152007 0.00029555193 2.9889925e-05 3.392497e-05 1.5133517e-07 0.000107564454 -2.283944e-05 -9.304319e-05
2.1673608e-05 -4.8803005e-05 -9.4755145e-05 3.0516398e-05 -5.5515608e-05 -4.3798727e-07 0.00012969207 0.00015405686
0.0 -0.00012482394 -0.00013115304 0.000108366985 -0.0002640158 -6.0764673e-06 -6.911053e-05 -3.4680106e-05
-3.4455932e-06 1.4843692e-05 -0.00026913872 -6.336055e-05 -2.1113813e-06 -7.3778705e-05 -0.000112604306 -9.637531e-05
-3.5177152e-05 5.7653197e-05 -0.00021314011 -8.452443e-05 2.365857e-05 -3.3048847e-05 -1.3129148e-06 -4.9916936e-05
4.509049e-06 -3.908738e-05 -5.2623877e-06 -0.00032087634 -9.191084e-05 -0.000111517016 0.0 1.6424813e-06
-3.1690204e-05 0.00016898931 0.00010820158 -2.2038796e-05 0.00010046591 7.594363e-05 -1.853001e-05 6.56464e-05
-6e-45 0.000118226875 -5.901685e-05 0.00027962445 -5.7957917e-05 0.0001543906 -3.8694914e-05 -5.256995e-05
-6e-45 0.000109043576 -5.3628202e-05 1.2660626e-05 -1.4098728e-05 6.77825e-05 4.048226e-06 3.4523517e-05
-6.184361e-05 9.88755e-07 0.0002656185 0.00021608506 0.0 3.1017786e-05 -4.1145748e-05 0.00017703805
6e-45 0.0 6e-45 6e-45 0.0 6e-45 6e-45 6e-45
0.0 6e-45 6e-45 -6e-45 0.0 0.0 6e-45 6e-45
-6e-45 6e-45 -6e-45 6e-45 6e-45 0.0 -6e-45 6e-45
6e-45 6e-45 0.0 6e-45 6e-45 6e-45 -0.00024160078 6e-45
-0.00012652802 4.4511784e-05 6e-45 -4.6227487e-05 1.6580481e-27 0.00019188663 6e-45 3.6271835e-05
-0.00039435868 6.700242e-05 1.0304019e-28 1.5400567e-05 0.00015683493 -5.623551e-05 2.39905e-26 -9.643034e-05
6e-45 -7.4006326e-05 9.415746e-05 1.7669143e-05 6e-45 0.00010142196 3.0654013e-05 -0.00015128641
0.0 -0.00026489023 3.3892542e-05 -8.844607e-05 -7.806201e-05 1.2482734e-07 0.00013138108 0.00012352008
8.1294904e-10 0.00026548922 1.9027146e-06 0.00025457444 9.827357e-10 0.00042124995 -0.00020911997 0.00025736488
7.721771e-07 6e-45 1.3048276e-06 8.8579356e-05 -4.582438e-06 -7.885407e-05 8.3661837e-13 0.00010760579
6.556482e-05 3.3181903e-05 -3.6563317e-06 2.1012533e-05 0.00037855218 0.00030418913 0.0 -3.074411e-05
3.2173037e-05 0.00026154553 6e-45 0.0 6e-45 6e-45 0.0 6e-45
6e-45 6e-45 6e-45 6e-45 6e-45 6e-45 0.0 6e-45
6e-45 6e-45 6e-45 6e-45 -6e-45 6e-45 6e-45 6e-45
-6e-45 6e-45 6e-45 6e-45 0.0 6e-45 6e-45 6e-45
-0.00047588555 6.67661e-05 -0.00015513031 0.000365646 4.4795783e-05 0.0004409258 -0.0003302011 0.0012065085
-1.0474758e-05 0.00086904934 -4.033279e-05 0.00016998775 8.091946e-06 0.00013589217 -0.00031339537 -0.00023848681

exp_avg_sq f4 [30, 30]
00000000: c5b8 6936 e07c 0134 650b a536 020a 3136
00000010: f5a8 1b33 6c4f 8037 00f8 8933 13fa 8637
00000020: 42a1 0335 109e b237 dd55 4b36 2c7f 7436
00000030: f12a 3435 b7cf ac35 e423 a633 48de aa35
00000040: 9c7a de35 ace6 aa34 ca01 4132 d72d 0337
00000050: df6b 0b37 e534 4634 09fa 9d35 1afb b234
00000060: 49da 1638 c90b a937 0000 0000 0115 4836
00000070: ac83 dd36 dce9 a537 ad4f 3536 c0bc 0b34
00000080: 0905 0e36 c5fa 5935 60a9 a032 466a d136
00000090: 2ebb b931 e375 5536 6c25 cf33 2f25 0937
000000a0: 4133 ee35 6498 3536 988c 9b34 e1cd 8634
000000b0: 633c 6a2f 5b11 9e35 7889 2135 1681 3234
000000c0: e36a 0432 1ec2 fd35 1107 8c35 96c0 0834
000000d0: 48b3 1e35 4cab 4232 bb12 2537 7a8d fa36
000000e0: 0000 0000 96df 9235 ac8d 9035 fefa 0937
000000f0: b640 1436 129b 2d32 5fd6 6c35 66fc 7835
00000100: a8ef 3d31 4502 0836 9239 1e35 e2b1 c636
00000110: 9701 d930 0a93 cf36 98f5 8835 315a 9335
00000120: 1038 0d33 0286 1333 b1e7 1a35 cde2 2135
00000130: 03ed 7e33 e477 1e34 96ff 7230 35de 1a36
00000140: 4949 4c36 0784 ca33 30aa a831 63f5 bd35
00000150: 408d 3c37 981a 9436 0000 0000 6321 f734
00000160: 48d5 1636 fd39 a936 b738 9635 f64f 0a34
00000170: d7d7 2236 6559 0e35 4c67 3633 8c3c 4c37
00000180: 6279 8329 2c65 3e36 ce19 4435 f95f 0837
00000190: 4033 1936 d50b 9a36 06c8 0935 0970 9f35
000001a0: aeed ba2a 6b33 1f35 90bb 0636 57af 2e33
000001b0: a457 8032 75ec 8535 e14b 2b35 5ade e933
000001c0: e9e9 0236 8ec9 8a32 f4b1 df36 b401 c136
000001d0: 0000 0000 931c 3d35 6a12 8235 d1ac 3137
000001e0: fa73 d628 0000 0000 5b17 872a 553f 0d2b
000001f0: 0000 0000 f361 f827 7471 742b 81d7 802a
00000200: 0000 0000 f68b d229 cac2 fa2a eab4 cd25
00000210: 0000 0000 0000 0000 4f67 9f27 cc87 dc28
00000220: 8579 d427 7bb6 7627 0927 a123 2bdd 8129
00000230: e1a6 bc2a 0000 0000 7912 b926 5e05 6e2b
00000240: 1600 fa2b 5bee c72b 0000 0000 3db7 b92a
00000250: 1c84 af24 6c35 0f2b b22d c636 4a5e 2a2b
00000260: 721c ff35 ac62 4935 31bf 342b bdcf 3236
00000270: da24 2f33 a289 4536 52d7 e12d 060b 0137
00000280: d57b 3136 439d 1436 5e65 032e 7668 8f31
00000290: 9e45 ce34 be57 fc35 b52c 8830 f124 f534
000002a0: 5432 312c 2451 c935 da7c 4635 66e6 0c34
000002b0: 42e4 8730 3270 0635 1fe9 1837 6f6a e736
000002c0: 0000 0000 253a 9f35 8536 d034 b0ad 0237
000002d0: 36cd a535 1ac1 4733 7ef0 9135 dfb9 1134
000002e0: 0327 4e31 b5db 4e36 d05b 6331 3a00 4635
000002f0: 9908 8131 21d0 3636 c2ed 9135 41ef 5235
00000300: 5828 a233 3c20 3030 4646 5730 2f52 bd34
00000310: 6714 3534 2849 c133 0738 bc30 a814 3c35
00000320: 40ae 1b34 7045 9c32 9727 5d34 9194 3e32
00000330: 40a8 4a36 0e76 5736 0000 0000 c3aa 3835
00000340: 5aea 1934 ff09 3a36 8f03 7f29 0000 0000
00000350: 4d99 3d2b 3d67 862b 0000 0000 20d9 492b
00000360: 55b9 bd2b b0ab 3f2b 3111 9420 a04b 7b2b
00000370: ae4d 352b c90d 912b 0000 0000 dd3c e425
00000380: 11ab 1b28 1efc 8629 ed66 c629 23e1 5828
00000390: 2bfa 9929 66c4 052a a9e7 292b 07b2 a526
000003a0: b937 172a 823e cb2b 03ac 7d2c 1b53 3d2c
000003b0: 0000 0000 342a 2f2b 8afb c127 8c7d cb2b
000003c0: c959 8436 1154 f233 c9c0 2336 97b7 0636
000003d0: 10db c332 3d04 0f37 924a 8235 5a6f 8037
000003e0: ee35 2e34 ce20 6e37 5cbc 4036 c60b 3936
000003f0: a091 b534 b5da fc34 3d07 7a35 2a72 9235
3.4827256e-06 1.205949e-07 4.9187097e-06 2.638088e-06 3.6242415e-08 1.5295773e-05 6.4246706e-08 1.6090495e-05
4.9035964e-07 2.1292857e-05 3.0299336e-06 3.6432857e-06 6.7117713e-07 1.2875452e-06 7.736506e-08 1.2730679e-06
1.6575973e-06 3.1832803e-07 1.1234485e-08 7.818881e-06 8.310161e-06 1.845943e-07 1.1770181e-06 3.3337784e-07
3.596608e-05 2.0151858e-05 0.0 2.9814548e-06 6.601642e-06 1.9778432e-05 2.701748e-06 1.301405e-07
2.116258e-06 8.120372e-07 1.8703474e-08 6.2410572e-06 5.4054885e-09 3.1808092e-06 9.645996e-08 8.174494e-06
1.7747299e-06 2.7059805e-06 2.8973295e-07 2.5109242e-07 2.130363e-10 1.1776968e-06 6.017722e-07 1.6624503e-07
7.7077145e-09 1.8906464e-06 1.0432869e-06 1.273605e-07 5.9120475e-07 1.1331235e-08 9.839127e-06 7.4670506e-06
0.0 1.094292e-06 1.0770068e-06 8.224275e-06 2.2091385e-06 1.0105184e-08 8.82288e-07 9.275449e-07
2.7639349e-09 2.02669e-06 5.894336e-07 5.921568e-06 1.578928e-09 6.1861983e-06 1.0204267e-06 1.0978603e-06
3.288011e-08 3.4347984e-08 5.7706626e-07 6.030721e-07 5.9354544e-08 1.4758513e-07 8.8402297e-10 2.307713e-06
3.0441026e-06 9.4303736e-08 4.9087916e-09 1.4153014e-06 1.1238561e-05 4.4138396e-06 0.0 4.6031627e-07
2.2475888e-06 5.043343e-06 1.1192377e-06 1.2881341e-07 2.4265516e-06 5.302921e-07 4.2469125e-08 1.2173445e-05
5.838625e-14 2.8371096e-06 7.305324e-07 8.128577e-06 2.2828608e-06 4.590935e-06 5.132755e-07 1.187903e-06
3.320516e-13 5.930694e-07 2.0076732e-06 4.0672003e-08 1.4941016e-08 9.97809e-07 6.381288e-07 1.08903535e-07
1.9507663e-06 1.615697e-08 6.6666344e-06 5.7520465e-06 0.0 7.044957e-07 9.691114e-07 1.0590259e-05
2.380907e-14 0.0 2.3997023e-13 5.0181154e-13 0.0 6.8940024e-15 8.684366e-13 2.2886903e-13
0.0 9.350153e-14 4.4544083e-13 3.5684423e-16 0.0 0.0 4.4243373e-15 2.4483799e-14
5.897357e-15 3.423828e-15 1.7472187e-17 5.767117e-14 3.3511304e-13 0.0 1.2841961e-15 8.4562034e-13
1.7763592e-12 1.4205957e-12 0.0 3.2989749e-13 7.6117954e-17 5.0877943e-13 5.9061795e-06 6.0526985e-13
1.9007259e-06 7.502192e-07 6.421418e-13 2.6644987e-06 4.077888e-08 2.94354e-06 2.567516e-11 7.691566e-06
2.6447135e-06 2.2145257e-06 2.9875984e-11 4.1737236e-09 3.8421143e-07 1.8801e-06 9.908009e-10 4.5661685e-07
2.518115e-12 1.4999282e-06 7.394243e-07 1.3122335e-07 9.887418e-10 5.0082156e-07 9.114184e-06 6.896727e-06
0.0 1.1863345e-06 3.8782687e-07 7.789044e-06 1.2353182e-06 4.6508923e-08 1.0873334e-06 1.3571797e-07
2.999912e-09 3.0824278e-06 3.3085037e-09 7.376108e-07 3.7553716e-09 2.724126e-06 1.0872538e-06 7.8579257e-07
7.551051e-08 6.4074235e-10 7.831641e-10 3.526379e-07 1.6864361e-07 9.00057e-08 1.3694724e-09 7.0065516e-07
1.4498892e-07 1.8192367e-08 2.0596632e-07 1.1093236e-08 3.019828e-06 3.2106213e-06 0.0 6.879383e-07
1.4334492e-07 2.7721978e-06 5.662446e-14 0.0 6.7359036e-13 9.549927e-13 0.0 7.1710866e-13
1.3480698e-12 6.8095096e-13 2.5083552e-19 8.9278064e-13 6.441192e-13 1.0306696e-12 0.0 3.9592938e-16
8.6413226e-15 5.994531e-14 8.810821e-14 1.2039227e-14 6.837962e-14 1.1880912e-13 6.0362354e-13 1.1497429e-15
1.3430827e-13 1.4441367e-12 3.6048948e-12 2.6904648e-12 0.0 6.223106e-13 5.384098e-15 1.4458864e-12
3.944359e-06 1.1284295e-07 2.4401108e-06 2.007442e-06 2.2800606e-08 8.524451e-06 9.707458e-07 1.5310641e-05
1.6224632e-07 1.4193543e-05 2.871987e-06 2.7574001e-06 3.3819833e-07 4.7097788e-07 9.314279e-07 1.0911074e-06

exp_avg f4 [30]
00000000: 1643 0b3a 93a8 48b9 f86c 8438 79ef 0137
00000010: 0400 0000 a6b7 ceb8 8e39 c538 0400 0000
00000020: 199d bc3a b3ed dd38 1ec7 34bb 0ce4 03b9
00000030: 0629 d7b8 1cc9 afba 1e18 fb39 ef96 18ba
00000040: 60da 9ab9 9d4f 59b9 1411 54ba 0400 0000
00000050: 97af fa38 cbbf 30b7 67d2 22b9 706b d8b9
00000060: 071b c439 c093 5f0e da70 d8b7 a022 5f3b
00000070: 36cf b13a 4a17 3139
0.0005312426 -0.00019136285 6.3145475e-05 7.744756e-06 6e-45 -9.857053e-05 9.4044124e-05 6e-45
0.001439008 0.00010582376 -0.0027584503 -0.00012578088 -0.0001025964 -0.0013411376 0.0004789242 -0.00058208307
-0.0002953587 -0.00020724391 -0.0008089703 6e-45 0.00011953635 -1.0535073e-05 -0.00015527905 -0.00041278778
0.0003740417 2.7558011e-30 -2.5801757e-05 0.0034047738 0.0013565782 0.00016888711

exp_avg_sq f4 [30]
00000000: a6ee df37 a096 c536 f529 f736 0a09 0937
00000010: 2a99 c12b 0d37 8c36 4cf5 fd35 46db 6b2c
00000020: c4f9 b837 2370 aa35 b34e 4638 6c1c 3737
00000030: d73a bb36 bf2a c537 0f6b 5537 5062 1d36
00000040: 44a6 af37 fa53 2f37 de60 1f38 e9a8 622f
00000050: c62a 9136 c5f2 8c36 a63b 5737 a1f0 8e37
00000060: 8a34 8637 d8d6 292f 9f9a 1e37 79f2 c137
00000070: bd3f 8137 5030 f636
2.66948e-05 5.8885926e-06 7.366058e-06 8.167941e-06 1.3755986e-12 4.178734e-06 1.892136e-06 3.351723e-12
2.2050815e-05 1.2698623e-06 4.7280173e-05 1.09142675e-05 5.579884e-06 2.3504135e-05 1.2720716e-05 2.3452048e-06
2.093905e-05 1.0450365e-05 3.799877e-05 2.0614589e-10 4.3263162e-06 4.2005872e-06 1.2828887e-05 1.703977e-05
1.599851e-05 1.5446788e-10 9.453534e-06 2.3120303e-05 1.5407679e-05 7.3369956e-06

exp_avg f4 [3, 30]
00000000: 657a 0c3b 45fc 9ab9 90ec 363a 6eb5 cdb8
00000010: 0400 0000 5914 0cb9 d56b 85b9 0400 0000
00000020: a8d1 b93a 0400 0080 c002 8db6 f48d ffb9
00000030: 0400 0080 0400 0080 d4e1 f23a 0400 0080
00000040: 2566 1f3b df7f 5ab9 255b 3139 0400 0000
00000050: 9194 96b9 a7ee 2cb9 e25b db3a 7644 fdb7
00000060: ce17 cd39 f145 b40b a1e5 0437 0404 a139
00000070: f06b 803b 1207 203b c937 78ba f2c5 e739
00000080: 2b59 b5b9 0431 eeb7 0400 0000 d37d 8637
00000090: 73f1 1439 0400 0000 9eb2 0dba 0adc deb8
000000a0: 0400 0000 c92d 033a 53df a9b8 2864 3139
000000b0: 3c95 9bba 1d8a 5237 1005 c8ba 69f9 0d39
000000c0: 6124 e837 0400 0000 34ff 9a39 999d 5939
000000d0: 845c afba 8cd1 c4b8 bea4 82b8 85a2 040d
000000e0: 200e f0b9 260f a7b9 d4b4 0dbb cb61 c6ba
000000f0: e076 de3a 033a 2fb9 293a e1ba 5459 d7b9
00000100: 0400 0000 bff2 6238 0164 1cb9 0400 0000
00000110: c6de 60ba 7bf4 f8b5 7280 30ba 941e e4b9
00000120: 0400 0080 71f4 9839 dd22 56b9 fad9 6d39
00000130: 9244 d43a 20e4 0737 d061 0339 0400 0000
00000140: b9d0 acb8 f397 ea38 2fdf e539 7d5f 99b9
00000150: c986 3439 35c9 020d e9d3 b938 4e4c e53a
00000160: 2bb4 363b ff63 2439
0.0021435258 -0.00029561124 0.00069779996 -9.808956e-05 6e-45 -0.0001335902 -0.00025448078 6e-45
0.0014176862 -6e-45 -4.2024476e-06 -0.00048743153 -6e-45 -6e-45 0.0018530437 -6e-45
0.0024322357 -0.00020837736 0.0001691399 6e-45 -0.0002872092 -0.00016492103 0.0016735757 -3.019183e-05
0.00039118383 6.9438714e-32 7.921278e-06 0.00030711305 0.003919117 0.0024418277 -0.0009468762 0.00044207234
-0.00034589446 -2.8394636e-05 6e-45 1.6032636e-05 0.00014204327 6e-45 -0.0005405339 -0.000106267704
6e-45 0.0005004076 -8.100145e-05 0.00016917347 -0.0011870037 1.2549132e-05 -0.0015260298 0.0001353972
2.7673495e-05 6e-45 0.0002956331 0.00020753442 -0.0013379012 -9.3850394e-05 -6.229569e-05 4.0871266e-31
-0.0004578689 -0.0003186401 -0.0021622675 -0.0015135346 0.0016972683 -0.00016710912 -0.0017183471 -0.0004107455
6e-45 5.4108674e-05 -0.00014914574 6e-45 -0.00085781177 -1.8548593e-06 -0.0006733007 -0.0004351033
-6e-45 0.00029173822 -0.00020421618 0.00022683284 0.0016194752 8.0997415e-06 0.00012529572 6e-45
-8.240477e-05 0.00011186292 0.00043844568 -0.00029253578 0.00017216349 4.0301537e-31 8.860959e-05 0.0017494054
0.0027878385 0.0001567751

exp_avg_sq f4 [3, 30]
00000000: 30f8 ba37 0ec7 d936 f1d8 e937 8b17 ed35
00000010: e290 762b 7365 6835 5c7a 9336 9ce2 f82a
00000020: e357 9c37 e7f9 4a30 e3ea ad31 b72f e637
00000030: 9a38 ab2d d46f 0531 c3e6 8937 0e6e 1e33
00000040: a696 d137 ccb0 f536 fd41 a434 fc12 3a2f
00000050: 8f0b 0537 8085 1136 93bd 4437 c90a d033
00000060: 2623 a535 5a6c e929 141c e032 7bab 9a35
00000070: 4156 5038 6c91 e637 14ea cd37 e8b8 e037
00000080: d9b4 db37 5ee1 3036 18db 9627 eed7 a135
00000090: d4e4 9136 d564 ed28 a526 f237 f1df 9b34
000000a0: 5efe 0a34 2f20 3438 6e9d 7134 a903 9a36
000000b0: 065c cc37 4fed 9d35 008f 5738 5b7c 1a37
000000c0: 805a 4936 4f6a 5d2f 6998 5037 5795 ab36
000000d0: f0f8 1c38 bfa5 4134 fc97 5e37 da4f 892c
000000e0: 97d3 cf36 1b51 0b36 f314 8c38 b5a3 1838
000000f0: 71fb 0238 b092 3437 3b7f c738 5f8a 2535
00000100: 3f86 1e2c 01bc 0335 26e0 4e36 0670 122c
00000110: 1ec1 ae38 d5d4 c334 64af 8637 2406 ca37
00000120: aabe c32c d5ca 0b37 4956 4738 4a87 2135
00000130: d8c8 1e38 2282 c436 37f9 1536 1115 182f
00000140: c4ec 1737 3aa0 bf36 0e1f 2638 0108 6d36
00000150: b6e4 0136 a7d7 a82c 6b9b 2a35 866d 5136
00000160: 099c 9538 d91c 8538
2.22885e-05 6.490277e-06 2.7876786e-05 1.7664728e-06 8.759782e-13 8.6574363e-07 4.395186e-06 4.4210891e-13
1.8637575e-05 7.3842304e-10 5.061666e-09 2.7440356e-05 1.9465585e-11 1.9417614e-09 1.643913e-05 3.6887336e-08
2.4984893e-05 7.322151e-06 3.0595393e-07 1.6923346e-10 7.930109e-06 2.168439e-06 1.1726649e-05 9.6877166e-08
1.2303688e-06 1.03660746e-13 2.60898e-08 1.1523802e-06 4.9671395e-05 2.7485854e-05 2.4546905e-05 2.6788985e-05
2.6191048e-05 2.6357225e-06 4.1870905e-15 1.2058279e-06 4.347976e-06 2.6356015e-14 2.8866643e-05 2.903394e-07
1.294479e-07 4.2945318e-05 2.2502147e-07 4.5899837e-06 2.4361547e-05 1.1766477e-06 5.1393174e-05 9.208069e-06
3.0004012e-06 2.0137601e-10 1.2433252e-05 5.1135826e-06 3.742514e-05 1.8034824e-07 1.3267618e-05 3.9026395e-12
6.193713e-06 2.0759824e-06 6.679622e-05 3.6392088e-05 3.122859e-05 1.0762989e-05 9.512758e-05 6.1668646e-07
2.2527672e-12 4.9074885e-07 3.0826864e-06 2.0810033e-12 8.3329374e-05 3.6476436e-07 1.6055717e-05 2.4083136e-05
5.5634013e-12 8.332271e-06 4.7525657e-05 6.0174045e-07 3.7857186e-05 5.8564046e-06 2.2347792e-06 1.3831804e-10
9.055428e-06 5.7108964e-06 3.9606406e-05 3.532041e-06 1.9355625e-06 4.7987894e-12 6.35561e-07 3.1207178e-06
7.1339375e-05 6.3473075e-05

exp_avg f4 [3]
00000000: 2808 2d3b 2469 cfba 93b2 d43a
0.0026402567 -0.0015824181 0.0016227536

exp_avg_sq f4 [3]
00000000: dab6 fd37 d2a2 8638 459e c138
3.0245097e-05 6.4199456e-05 9.232437e-05
