self-driving-car/last_brain.pth (torch, 7669 bytes, 12 tensors)

fc1.weight f4 [30, 5]
0.5631776 -0.16482039 0.7889846 0.86711586 -0.57282317 0.70599556 0.78903157 -0.35396972
-0.19912764 0.13719013 0.013432371 0.15488845 0.050443422 -1.4074329 1.1586381 0.33083233
0.5213637 0.6163976 0.34632275 -0.008934751 0.49866095 0.9113001 -0.10550194 0.044428464
0.38041052 0.07977366 0.15288235 -0.5309426 0.07842355 0.14769652 0.34391505 0.31211427
0.4290564 -0.569903 0.5620161 0.028162766 0.8360818 -0.01415291 -0.5433524 0.52469546
0.01384048 0.23326921 0.1271463 -1.0861489 0.71001744 -0.3565095 -0.43045563 -0.5978972
0.37753427 0.30240887 0.48673922 -0.52548784 -0.08438885 -0.32614458 0.95458746 0.110000186
0.7690277 0.393142 -0.8013463 0.72908914 0.4318069 0.14390863 -0.6425005 0.7328463
-0.58366066 -0.11687505 0.7260511 0.29046094 -0.9807962 1.0305499 0.38425937 0.5367182
0.6884698 0.5772109 -0.2844378 -0.10736271 0.5315857 0.3114315 -0.44885954 0.7339764
0.071639545 -0.08218972 0.7100295 1.3081682 -0.7030282 -0.036739532 0.80139065 0.4402118
0.49828228 0.22981529 -0.027598191 -0.035900842 -0.3454056 0.043661475 0.37931028 0.08263884
0.97036386 -1.9216114 -0.47016197 -0.070135064 -0.43394616 0.45848158 0.5960082 -1.0389903
0.6961629 0.13162112 -0.21624371 -0.39370975 -0.43519977 -0.3567412 0.77252114 -0.18218006
-0.037579708 1.0717119 -1.1714473 0.2047992 0.34027037 0.70827 0.07429599 0.34834114
-0.29666042 -0.5991558 0.1266551 -0.6267292 0.41651186 -0.19736975 0.34514165 0.70000935
0.8745828 -0.85479575 0.43360645 -0.6894091 -0.10564927 0.7645879 -0.76782215 0.24144329
0.09390137 0.089599945 -0.7151657 0.5627185 0.25915676 0.015040351 0.50347066 -0.4365203
0.3428274 0.39655727 0.44433552 0.46812946 -0.0595068 -0.032718223
00000000: 682c 103f adc6 28be e5fa 493f 4efb 5d3f
00000010: 8aa4 12bf 20bc 343f f9fd 493f 853b b5be
00000020: 1ee8 4bbe 927b 0c3e 7313 5c3c 149b 1e3e
00000030: c39d 4e3d c326 b4bf 414e 943f db62 a93e
00000040: 1778 053f 3ccc 1d3f 3751 b13e 1063 12bc
00000050: 7d50 ff3e f74a 693f 6711 d8bd 9ffa 353d
00000060: 2bc5 c23e 5f60 a33d 318d 1c3e dbeb 07bf
00000070: 879c a03d c23d 173e a215 b03e 71cd 9f3e
00000080: 48ad db3e 2ae5 11bf 4ae0 0f3f 9ab5 e63c
00000090: 7509 563f 9be1 67bc 2519 0bbf 7152 063f
000000a0: 2ec3 623c 20de 6e3e a432 023e ed06 8bbf
000000b0: b4c3 353f 6a88 b6be ae64 dcbe ca0f 19bf
000000c0: 2c4c c13e 56d5 9a3e e235 f93e 5f86 06bf
000000d0: 10d4 acbd 6cfc a6be d85f 743f c747 e13d
000000e0: 00df 443f e949 c93e 0825 4dbf 96a5 3a3f
000000f0: cb15 dd3e c95c 133e ea7a 24bf d19b 3b3f
00000100: c96a 15bf 305c efbd 7cde 393f 4cb7 943e
00000110: 7615 7bbf 0fe9 833f a5bd c43e 5d66 093f
00000120: 8f3f 303f 18c4 133f d5a1 91be fbe0 dbbd
00000130: 0016 083f f373 9f3e ebd0 e5be e1e5 3b3f
00000140: c1b7 923d 1553 a8bd 7ec4 353f 0e72 a73f
00000150: a8f9 33bf 317c 16bd f027 4d3f 7163 e13e
00000160: db1e ff3e b354 6b3e 9a15 e2bc c30c 13bd
00000170: 01d9 b0be 60d6 323d f534 c23e 8d3e a93d
00000180: c469 783f 5df7 f5bf 12b9 f0be f9a2 8fbd
00000190: 312e debe 19be ea3e fe93 183f a2fd 84bf
000001a0: bb37 323f b0c7 063e fe6e 5dbe 5394 c9be
000001b0: 81d2 debe c8a6 b6be f2c3 453f 698d 3abe
000001c0: 2eed 19bd db2d 893f fcf1 95bf e2b6 513e
000001d0: eb37 ae3e 2f51 353f 7f28 983d c559 b23e
000001e0: e0e3 97be 4662 19bf e0b1 013e 5371 20bf
000001f0: 0b41 d53e 4c1b 4abe 68b6 b03e d033 333f
00000200: a9e4 5f3f e5d3 5abf aa01 de3e 1d7d 30bf
00000210: a55e d8bd 08bc 433f fe8f 44bf e93c 773e
00000220: 5d4f c03d 2d80 b73d 1915 37bf 520e 103f
00000230: 32b0 843e ce6b 763c 74e3 003f 977f dfbe
00000240: 1387 af3e 8e09 cb3e f27f e33e aaae ef3e
00000250: 67bd 73bd 8b03 06bd

fc1.bias f4 [30]
-0.09994731 0.2656667 -0.8323376 -0.50908315 0.42427406 0.40826356 -0.5995063 -1.0994278
0.59372455 0.927658 0.44471925 -0.518452 0.384258 -0.42358148 -0.20429926 -0.20116296
-0.23087107 -0.14687191 -0.37046364 -0.08089516 0.25050744 -0.31598547 -0.04624596 0.10445521
0.6668215 -0.44190836 -0.3685605 -0.4086569 -0.4617999 0.0061093713
00000000: 2db1 ccbd 7705 883e 1414 55bf 4653 02bf
00000010: 733a d93e ec07 d13e 3f79 19bf 0dba 8cbf
00000020: 55fe 173f ff7a 6d3f 3eb2 e33e 45b9 04bf
00000030: 77bd c43e acdf d8be d333 51be aafd 4dbe
00000040: 7769 6cbe 9765 16be 69ad bdbe 5dac a5bd
00000050: 8342 803e d9c8 a1be 676c 3dbd 9dec d53d
00000060: d0b4 2a3f d041 e2be f6b3 bcbe 7a3b d1be
00000070: 0971 ecbe 1f31 c83b

fc2.weight f4 [3, 30]
-0.011543061 -0.6755833 -1.0046893 0.14402488 -0.6234253 0.019533485 0.1023662 -0.16789536
-0.27496517 0.9104696 0.097133376 -0.120477065 -0.3537053 0.23045528 -0.29821983 0.2084411
-1.1518033 0.3274826 -0.034393065 1.7880957 -0.21827248 -0.105300255 1.424844 -0.49542722
0.6363347 -0.8670421 -0.5607175 -0.37427545 0.5500478 -0.3810422 0.38648826 -0.4849799
-0.6343309 -0.55870765 -0.35882315 -0.25730675 0.16768229 -1.5385367 -0.0712757 0.59907955
0.32097614 -0.043737113 -0.1611205 0.026736312 -0.04616273 0.007720004 -0.33550984 -0.7598438
-0.10346437 0.46981695 -0.21059988 0.15139101 -0.6929299 -0.106667355 0.24371235 -0.81444013
0.6922741 0.10235705 0.09101025 0.05087043 -0.3390248 0.11189473 -0.36523348 -0.17338477
-0.13180448 0.31296548 -0.8983406 -0.49058083 -0.5818731 0.600028 0.51865613 -0.40955448
0.6426234 1.9781168 -0.3067345 -0.5712217 -0.2062003 -0.26541802 -0.018999463 0.755973
-0.88769466 0.037830945 -0.12129088 -0.57836163 -0.12397012 -0.32068533 -0.2651657 -0.0773571
-0.46303564 -0.047866218
00000000: 1b1f 3dbc 07f3 2cbf a999 80bf 427b 133e
00000010: cd98 1fbf b004 a03c 5fa5 d13d c3ec 2bbe
00000020: 3cc8 8cbe 8914 693f dded c63d aebc f6bd
00000030: dc18 b5be 78fc 6b3e 45b0 98be 9571 553e
00000040: 4a6e 93bf cdab a73e bedf 0cbd 52e0 e43f
00000050: d282 5fbe a9a7 d7bd 4a61 b63f a3a8 fdbe
00000060: d5e6 223f 79f6 5dbf 2f8b 0fbf 08a1 bfbe
00000070: efcf 0c3f f717 c3be cae1 c53e 494f f8be
00000080: 8363 22bf 7707 0fbf abb7 b7be b6bd 83be
00000090: e8b4 2b3e c5ee c4bf fff8 91bd 475d 193f
000000a0: fc56 a43e b025 33bd c6fc 24be 1c06 db3c
000000b0: 2115 3dbd 16f8 fc3b f2c7 abbe 2085 42bf
000000c0: 21e5 d3bd d98b f03e 7fa7 57be 3f06 1b3e
000000d0: db63 31bf 6a74 dabd bb8f 793e 267f 50bf
000000e0: e038 313f 93a0 d13d 9563 ba3d 835d 503d
000000f0: a994 adbe 1029 e53d e2ff babe c78b 31be
00000100: c1f7 06be 033d a03e a6f9 65bf 692d fbbe
00000110: a3f5 14bf 6f9b 193f a6c6 043f 20b1 d1be
00000120: f882 243f ee32 fd3f 4e0c 9dbe 963b 12bf
00000130: 2c26 53be dfe4 87be c3a4 9bbc 7287 413f
00000140: f53f 63bf 9ff4 1a3d 5a67 f8bd 820f 14bf
00000150: 0ce4 fdbd de30 a4be ccc3 87be 666d 9ebd
00000160: 0213 edbe 5e0f 44bd

fc2.bias f4 [3]
-0.01207349 0.017949456 -0.117809385
00000000: e3cf 45bc bd0a 933c 0c46 f1bd

exp_avg f4 [30, 5]
0.0006632368 0.0007768092 0.00069147843 -0.00025800697 0.00025800697 0.00036304563 -0.0010893514 -1.7240714e-05
0.00109159 -0.00109159 0.00059506 0.00037000407 -2.016493e-05 0.0017287722 -0.0017287722 -0.000115636714
-0.00014727465 -0.00037312592 -0.00021546212 0.00021546212 0.00042380672 -0.00064271415 -0.00026993165 0.00128906
-0.00128906 2.5490332e-05 -0.0005641522 -3.291219e-05 -0.00021693607 0.00021693607 0.0001386179 0.0002002648
0.0004996398 -0.0005119885 0.0005119885 -0.00010451313 -4.167703e-05 -8.1988685e-05 -0.00030922846 0.00030922846
0.0003909566 0.00023705489 9.91206e-05 0.00035098102 -0.00035098102 0.00011620101 0.00033127147 0.0013418621
-0.0022870027 0.0022870027 -0.0004075319 -0.00035617294 -0.00018381853 0.00030167538 -0.00030167538 -0.00034280925
-0.0001461256 -0.00042706053 -1.01841315e-05 1.01841315e-05 -0.00032277338 -0.0012698483 -8.564209e-05 8.0481135e-05
-8.0481135e-05 -0.0017792485 -0.0030429882 -0.0013813237 -1.0405944e-05 1.0405944e-05 0.0002953091 8.182447e-05
0.00014438403 -1.7762542e-05 1.7762542e-05 -0.00022682679 0.00030332134 3.867563e-05 -0.0007473857 0.0007473857
0.00048422194 0.00035671314 0.00042390157 0.00018456118 -0.00018456118 -0.00088960544 2.6086644e-05 -0.0012080183
0.000107300664 -0.000107300664 0.0 0.0 0.0 0.0 0.0 -0.0006134841
4.8447746e-05 0.00042340157 -0.002617518 0.002617518 0.0003247317 0.00069697644 -9.3898874e-05 0.00012344387
-0.00012344387 0.0 0.0 0.0 0.0 0.0 -0.00094939827 -0.00013020894
-0.0011584129 9.074969e-05 -9.074969e-05 0.00056729704 0.00022061593 3.673509e-06 0.0008819526 -0.0008819526
3.341133e-05 0.0010698849 0.00057971134 -0.0011651858 0.0011651858 0.00039722762 0.00019894572 0.00043443067
0.00033624689 -0.00033624689 -4.452257e-06 -0.00010702632 0.000118529315 1.0604955e-05 -1.0604955e-05 0.000113674876
0.00018971543 -3.8518556e-05 0.00091661955 -0.00091661955 4.8147827e-05 -6.722649e-05 0.0004472202 -0.00037019158
0.00037019158 0.0003693905 -0.0002330924 0.000115521114 0.0007568493 -0.0007568493
00000000: 11dd 2d3a c8a2 4b3a 5544 353a 1c45 87b9
00000010: 1c45 8739 2957 be39 91c8 8eba 27a0 90b7
00000020: af13 8f3a af13 8fba cdfd 1b3a 1bfd c139
00000030: dc27 a9b7 f897 e23a f897 e2ba fd81 f2b8
00000040: bd6d 1ab9 1da0 c3b9 aced 61b9 aced 6139
00000050: 6032 de39 d17b 28ba 9d85 8db9 adf5 a83a
00000060: adf5 a8ba 12d4 d537 9de3 13ba 320b 0ab8
00000070: 5579 63b9 5579 6339 f659 1139 2cfe 5139
00000080: 42fa 023a f736 06ba f736 063a 0f2e dbb8
00000090: 5fce 2eb8 57f1 abb8 f11f a2b9 f11f a239
000000a0: 4ef9 cc39 f091 7839 f8de cf38 e003 b839
000000b0: e003 b8b9 f1b0 f338 81ae ad39 6ce1 af3a
000000c0: 8ae1 15bb 8ae1 153b 01aa d5b9 b9bc bab9
000000d0: 69bf 40b9 2f2a 9e39 2f2a 9eb9 14bb b3b9
000000e0: 4b39 19b9 18e7 dfb9 83dc 2ab7 83dc 2a37
000000f0: e939 a9b9 0a71 a6ba bf9a b3b8 fbc7 a838
00000100: fbc7 a8b8 ac35 e9ba df6c 47bb 880d b5ba
00000110: 3095 2eb7 3095 2e37 b7d3 9a39 2e99 ab38
00000120: cb65 1739 c500 95b7 c500 9537 5ad8 6db9
00000130: 1a07 9f39 a437 2238 35ec 43ba 35ec 433a
00000140: 2bdf fd39 3a05 bb39 1b3f de39 c486 4139
00000150: c486 41b9 6934 69ba a4d4 da37 5e56 9eba
00000160: 9b06 e138 9b06 e1b8 0000 0000 0000 0000
00000170: 0000 0000 0000 0000 0000 0000 39d2 20ba
00000180: 5f34 4b38 fffb dd39 aa8a 2bbb aa8a 2b3b
00000190: c040 aa39 4cb5 363a 93eb c4b8 b670 0139
000001a0: b670 01b9 0000 0000 0000 0000 0000 0000
000001b0: 0000 0000 0000 0000 0ae1 78ba b288 08b9
000001c0: e3d5 97ba de50 be38 de50 beb8 a9b6 143a
000001d0: 2355 6739 6786 7636 d632 673a d632 67ba
000001e0: 2423 0c38 613b 8c3a c5f7 173a 26b9 98ba
000001f0: 26b9 983a fd42 d039 169c 5039 4cc4 e339
00000200: 4b4a b039 4b4a b0b9 9964 95b6 5173 e0b8
00000210: f192 f838 efeb 3137 efeb 31b7 bc64 ee38
00000220: 59ee 4639 fc8e 21b8 4c49 703a 4c49 70ba
00000230: 56f2 4938 f2fb 8cb8 e178 ea39 4616 c2b9
00000240: 4616 c239 c1aa c139 446a 74b9 ed43 f238
00000250: 4c67 463a 4c67 46ba

exp_avg_sq f4 [30, 5]
1.3153982e-05 1.3080294e-05 1.1385773e-05 2.1754392e-06 2.1754392e-06 1.6816131e-05 3.292046e-05 1.9685951e-05
1.2275717e-05 1.2275717e-05 1.4148941e-05 1.6249596e-05 1.4173028e-05 1.7883753e-05 1.7883753e-05 1.6298696e-05
1.5801248e-05 1.598436e-05 3.2518128e-06 3.2518128e-06 1.1456337e-05 2.4655707e-05 1.547976e-05 1.0028758e-05
1.0028758e-05 9.274766e-06 1.2176412e-05 6.971599e-06 2.5746951e-06 2.5746951e-06 3.9373674e-05 3.3019798e-05
3.1901956e-05 8.064478e-06 8.064478e-06 4.8029524e-05 4.8638158e-05 4.6372123e-05 1.8073531e-05 1.8073531e-05
2.3176353e-05 3.0744326e-05 1.7563145e-05 5.5130763e-06 5.5130763e-06 2.7554846e-05 6.320788e-05 3.0483845e-05
2.4534087e-05 2.4534087e-05 1.8104776e-05 1.6427532e-05 1.4859119e-05 3.7796497e-06 3.7796497e-06 1.0048094e-05
1.2363021e-05 7.5265375e-06 2.1861479e-06 2.1861479e-06 2.5504496e-05 3.9296065e-05 1.833076e-05 4.7168437e-06
4.7168437e-06 0.00011681421 0.00018708323 8.626839e-05 3.4646284e-05 3.4646284e-05 7.565987e-06 1.0638813e-05
6.5656372e-06 1.7981895e-06 1.7981895e-06 1.8546943e-05 2.6860029e-05 1.4480278e-05 4.0502423e-06 4.0502423e-06
1.7460874e-05 1.898871e-05 2.8327497e-05 9.323158e-06 9.323158e-06 3.0044752e-05 3.6831425e-05 3.254422e-05
7.5916955e-06 7.5916955e-06 0.0 0.0 0.0 0.0 0.0 1.5738397e-05
0.00013055866 2.9808482e-06 3.794636e-05 3.794636e-05 4.9907154e-05 6.483031e-05 4.0404837e-05 1.0115e-05
1.0115e-05 0.0 0.0 0.0 0.0 0.0 3.0238976e-05 3.547569e-05
4.6141446e-05 1.5528998e-05 1.5528998e-05 2.7514487e-05 4.0165356e-05 2.2969634e-05 9.404565e-06 9.404565e-06
5.7454054e-06 1.981988e-05 1.0083811e-05 8.709411e-06 8.709411e-06 2.2072105e-05 2.4846231e-05 2.6613636e-05
6.0643615e-06 6.0643615e-06 1.7424579e-06 1.0393004e-06 2.3483465e-06 2.2739607e-06 2.2739607e-06 8.761134e-07
1.3449782e-06 9.090536e-07 1.8639576e-06 1.8639576e-06 1.2774932e-05 1.0775677e-05 1.2120266e-05 4.063705e-06
4.063705e-06 2.2920149e-06 7.1039476e-06 3.6897122e-06 2.6557718e-06 2.6557718e-06
00000000: ecaf 5c37 6f73 5b37 8605 3f37 c3fd 1136
00000010: c3fd 1136 5e10 8d37 1314 0a38 4223 a537
00000020: cef3 4d37 cef3 4d37 3d61 6d37 be4f 8837
00000030: b1c8 6d37 1105 9637 1105 9637 2fb9 8837
00000040: ec8c 8437 2716 8637 b839 5a36 b839 5a36
00000050: 9834 4037 bad3 ce37 88da 8137 3041 2837
00000060: 3041 2837 d19a 1b37 4b49 4c37 94ed e936
00000070: edc8 2c36 edc8 2c36 2925 2538 bd7e 0a38
00000080: 77ce 0538 ab4c 0737 ab4c 0737 4f73 4938
00000090: d300 4c38 b07f 4238 9d9c 9737 9d9c 9737
000000a0: d76a c237 78f3 0038 9154 9337 f7fc b836
000000b0: f7fc b836 9525 e737 798e 8438 8fb7 ff37
000000c0: 8dce cd37 8dce cd37 b6df 9737 dbcd 8937
000000d0: 6e4b 7937 e3a5 7d36 e3a5 7d36 3c94 2837
000000e0: c56a 4f37 778c fc36 bcb5 1236 bcb5 1236
000000f0: 7df2 d537 d4d1 2438 02c5 9937 6145 9e36
00000100: 6145 9e36 27fa f438 c62b 4439 fdea b438
00000110: 2a51 1138 2a51 1138 55df fd36 5b7d 3237
00000120: 654e dc36 5259 f135 5259 f135 4295 9b37
00000130: 7951 e137 52f0 7237 51e7 8736 51e7 8736
00000140: f178 9237 f249 9f37 d6a0 ed37 a96a 1c37
00000150: a96a 1c37 9d08 fc37 717b 1a38 1780 0838
00000160: 2bbc fe36 2bbc fe36 0000 0000 0000 0000
00000170: 0000 0000 0000 0000 0000 0000 f305 8437
00000180: 93e6 0839 950a 4836 9828 1f38 9828 1f38
00000190: 6653 5138 82f5 8738 5d78 2938 98b3 2937
000001a0: 98b3 2937 0000 0000 0000 0000 0000 0000
000001b0: 0000 0000 0000 0000 b5a9 fd37 bbcb 1438
000001c0: 0088 4138 4544 8237 4544 8237 e9ce e637
000001d0: 3977 2838 eaae c037 4dc8 1d37 4dc8 1d37
000001e0: a8c8 c036 de42 a637 a32d 2937 a31e 1237
000001f0: a31e 1237 7c27 b937 e06c d037 5940 df37
00000200: 787c cb36 787c cb36 66de e935 177e 8b35
00000210: 4998 1d36 599a 1836 599a 1836 0e2e 6b35
00000220: 1985 b435 b005 7435 182d fa35 182d fa35
00000230: ea53 5637 2ec9 3437 2558 4b37 f65a 8836
00000240: f65a 8836 84d0 1936 725e ee36 c69c 7736
00000250: d039 3236 d039 3236

exp_avg f4 [30]
0.0012175671 -0.006494619 -0.0034787112 -0.00041741645 -0.005586976 -0.00016762095 0.0015178282 -2.3659786e-05
-0.00180749 0.007898514 -4.633865e-06 -0.0007389693 -0.0030087186 -0.00244413 0.00014527176 0.0018354986
-0.000658537 -0.0010651891 0.0 0.0048281914 -0.0004364 0.0 0.0027875553 -0.003882798
0.0064750565 0.0003211284 3.709134e-05 -0.0016200119 0.0015901058 -0.0038369577
00000000: c696 9f3a d0d0 d4bb 17fb 63bb b0d8 dab9
00000010: f412 b7bb 68c3 2fb9 ddf1 c63a 0179 c6b7
00000020: 4de9 ecba c568 013c 997c 9bb6 64b7 41ba
00000030: ec2d 45bb b22d 20bb 1754 1839 1d95 f03a
00000040: aca1 2cba d19d 8bba 0000 0000 ce35 9e3b
00000050: 9ecc e4b9 0000 0000 6baf 363b 8a76 7ebb
00000060: b62c d43b 205d a839 8692 1b38 9456 d4ba
00000070: 196b d03a 7875 7bbb

exp_avg_sq f4 [30]
1.9987689e-05 0.00017458764 4.7136502e-05 2.1586355e-05 0.00014556297 1.8693756e-05 4.6536366e-05 5.1749128e-05
6.26976e-05 0.00034892178 3.3129258e-05 1.6159334e-05 9.000655e-05 0.00023065603 1.8751729e-05 3.903828e-05
0.00012715715 6.328515e-05 0.0 0.0003684652 0.00010377569 0.0 0.00032484953 0.000119936274
0.00014184398 6.106235e-05 1.056101e-05 5.0594813e-06 1.6780428e-05 3.98395e-05
00000000: 3cab a737 8311 3739 6fb4 4538 5814 b537
00000010: 43a2 1839 89d0 9c37 0b30 4338 340d 5938
00000020: 857c 8338 7def b639 45f4 0a38 e88d 8737
00000030: e6c1 bc38 42dc 7139 084d 9d37 09bd 2338
00000040: 7d55 0539 f5b7 8438 0000 0000 902e c139
00000050: 26a2 d938 0000 0000 9150 aa39 4c86 fb38
00000060: f4bb 1439 990e 8038 312f 3137 9dc4 a936
00000070: b2c3 8c37 5619 2738

exp_avg f4 [3, 30]
-0.000739736 0.0034109363 0.0022590721 -0.00047636972 0.00511179 0.004112228 -0.00034768877 -0.00011636541
0.009583648 0.008215267 0.0061044977 0.0012623484 0.001984729 0.0028494298 -0.00036048255 0.0020430554
-0.00060792576 0.00024510917 0.0 0.0007822428 0.006841161 0.0 -0.00054755213 0.0015905892
0.0081436485 -0.0006424171 -0.00032036903 0.0010084376 -0.00042735823 7.694306e-05 0.00055397145 0.0003910832
-0.0012817463 0.00025713837 0.00067350094 -0.0003688691 -0.0006868542 -0.00020888617 -0.0007668719 -0.0012001086
-0.0011328502 -0.0005710587 -0.00013961943 -0.0011394313 0.0009336197 -0.00031976608 -0.00030589924 0.0007504821
0.0 -0.00022027567 -0.00037232362 0.0 -0.00018352656 0.00094684126 -0.0012741976 -0.00019333643
-0.00022401908 -0.00080107385 -0.00054048194 0.00097581843 -0.00022531107 -0.0016902024 2.8288494e-05 -2.121595e-05
-0.0020992937 -0.0009620328 -0.0001702612 2.7135311e-05 -0.001613651 -0.0009717845 -0.0011859777 -0.00051303656
-0.0009783506 -0.0009936094 -0.0004690587 -0.00052492245 -0.00014652679 -0.00078606245 0.0 -0.0018983242
-0.0013673742 0.0 -0.0005663217 -0.00075901963 -0.0006733405 -7.029378e-05 -0.00015072526 5.329763e-05
-0.00016862205 -0.00073152257
00000000: d8ea 41ba 048a 5f3b f10c 143b 43c1 f9b9
00000010: cd80 a73b debf 863b ff49 b6b9 3409 f4b8
00000020: bc04 1d3c 5499 063c 3d08 c83b 6275 a53a
00000030: 3a12 023b 80bd 3a3b 26ff bcb9 c8e4 053b
00000040: 355d 1fba ff81 8039 0000 0000 6d0f 4d3a
00000050: d12b e03b 0000 0000 9a89 0fba 517b d03a
00000060: f06c 053c e267 28ba 34f7 a7b9 8d2d 843a
00000070: 0d0f e0b9 7e5c a138 6538 113a 4c0a cd39
00000080: 4500 a8ba 87d0 8639 e28d 303a c664 c1b9
00000090: 010e 34ba 7408 5bb9 e707 49ba f64c 9dba
000000a0: 257c 94ba 1ab3 15ba ce66 12b9 f858 95ba
000000b0: 28be 743a 47a6 a7b9 1a61 a0b9 00bc 443a
000000c0: 0000 0000 cdf9 66b9 6e34 c3b9 0000 0000
000000d0: 0971 40b9 7135 783a fa02 a7ba 5aba 4ab9
000000e0: aae6 6ab9 28ff 51ba 21af 0dba 11ce 7f3a
000000f0: 7b41 6cb9 c889 ddba 144d ed37 e8f8 b1b7
00000100: 4e94 09bb ee30 7cba 2588 32b9 a3a0 e337
00000110: 2581 d3ba 5bbf 7eba cf72 9bba 4d7d 06ba
00000120: 003c 80ba 003c 82ba feeb f5b9 f39a 09ba
00000130: fca4 19b9 c20f 4eba 0000 0000 31d1 f8ba
00000140: 7739 b3ba 0000 0000 3575 14ba f2f8 46ba
00000150: 1e83 30ba b06a 93b8 010c 1eb9 e58b 5f38
00000160: 23d0 30b9 a6c3 3fba

exp_avg_sq f4 [3, 30]
4.1106832e-05 0.00010365683 2.8497388e-05 1.0212313e-05 0.00017833925 5.9319445e-05 1.0179278e-05 2.5454763e-06
0.00023774196 0.00026192982 9.197093e-05 3.131877e-05 7.0093265e-05 5.0593655e-05 3.1941574e-05 2.6609012e-05
2.6819496e-05 2.563715e-05 0.0 2.6470607e-05 0.00013073218 0.0 3.9653187e-05 4.543216e-05
0.000162333 1.1074147e-05 3.7411837e-06 8.556988e-06 3.5493456e-06 3.3218636e-05 4.2644573e-05 9.505542e-05
2.7613643e-05 2.5653077e-05 0.00013440351 8.110594e-06 3.0308287e-05 3.3127624e-06 0.00013927047 3.3285574e-05
4.9356408e-05 6.164477e-05 1.3032886e-05 6.384097e-05 5.4976157e-05 3.6205667e-05 1.4044849e-05 3.0786236e-05
0.0 4.627956e-06 0.000110006804 0.0 1.941217e-05 7.74876e-05 4.9214053e-05 8.692089e-06
6.1975965e-07 1.279593e-05 1.338898e-05 6.652835e-05 0.00010770363 0.00018049455 2.2171605e-05 3.996821e-05
0.00024899555 1.9445355e-05 2.2617716e-05 3.69173e-06 0.00011255976 2.655301e-05 3.806086e-05 4.879323e-05
7.278768e-05 5.125818e-05 0.000112267546 2.907099e-05 4.945769e-05 6.412448e-05 0.0 2.5056923e-05
8.2354774e-05 0.0 8.874264e-05 9.767714e-05 2.0591935e-05 2.967548e-05 3.4808224e-06 1.075474e-05
1.0293532e-05 9.919996e-05
00000000: 206a 2c38 5662 d938 ad0d ef37 8d55 2b37
00000010: 9400 3b39 c5cd 7838 abc7 2a37 f3d2 2a36
00000020: 5f4a 7939 a053 8939 84e0 c038 465c 0338
00000030: 09ff 9238 8634 5438 01f9 0538 6b36 df37
00000040: 6efa e037 5c0f d737 0000 0000 320d de37
00000050: 2715 0939 0000 0000 4951 2638 698e 3e38
00000060: ef37 2a39 19cb 3937 0c11 7b36 fc8f 0f37
00000070: 4b31 6e36 3d54 0b38 43dd 3238 7d58 c738
00000080: d9a3 e737 9031 d737 abee 0c39 bc12 0837
00000090: 8d3e fe37 d350 5e36 2209 1239 1d9c 0b38
000000a0: 0a04 4f38 4947 8138 d2a7 5a37 5ce2 8538
000000b0: 3396 6638 8adb 1738 2ba2 6b37 7820 0138
000000c0: 0000 0000 d749 9b36 74b3 e638 0000 0000
000000d0: 51d7 a237 d780 a238 306b 4e38 3dd4 1137
000000e0: 8f5d 2635 1aae 5637 3ba1 6037 2385 8b38
000000f0: f2de e138 2343 3d39 29fd b937 8aa3 2738
00000100: 9e8b 8239 951e a337 2dbb bd37 70bf 7736
00000110: 100e ec38 28be de37 8aa3 1f38 55a7 4c38
00000120: 97a5 9838 0dfe 5638 2e71 eb38 7add f337
00000130: ca70 4f38 917a 8638 0000 0000 5531 d237
00000140: e2b5 ac38 0000 0000 581b ba38 04d8 cc38
00000150: d8bc ac37 9cef f837 1398 6936 426f 3437
00000160: 62b2 2c37 9309 d038

exp_avg f4 [3]
0.009293744 0.00017401727 -0.0018686445
00000000: ca44 183c 6878 3639 4eed f4ba

exp_avg_sq f4 [3]
0.00036564638 9.7552766e-05 0.00013861252
00000000: 3ab4 bf39 3e95 cc38 8458 1139
